DL models/DL_model_on_TF-IDF_PCA.pt (torch, 87747 bytes, 13 tensors)

fc1.weight f4 [64, 300]
-0.03548429 -0.031691823 0.07764185 -0.06542022 -0.0044631716 -0.03722084 0.053147476 -0.056210227
0.0048445626 -0.039348688 -0.010255488 -0.078571916 -0.2199768 -0.046552867 -0.05383857 -0.045026563
0.01758404 -0.037340138 -0.04164798 0.015149343 0.06698714 -0.14578938 0.017348731 0.1466912
-0.012158711 -0.04372729 0.01577223 -0.18407306 0.06160116 0.028612854 0.09570017 -0.12429376
0.12237407 0.012052585 -0.03690944 -0.115371116 0.05538801 -0.023186304 -0.059211705 -0.16370344
0.035697248 -0.09315232 -0.18617299 0.10499092 -0.03979626 -0.043626923 -0.09601092 -0.19559051
-0.037360888 -0.022116719 0.118898116 0.04207614 -0.0546666 0.17196143 0.20698051 -0.015821826
-0.02707142 0.09045482 -0.007012792 0.037294146 -0.12433093 0.14333123 -0.019443706 0.10211379
0.1136461 0.079698145 -0.0055984594 0.03262768 0.089665376 -0.028366216 -0.034062397 -0.027068764
-0.013228086 -0.08708652 -0.15771432 -0.02777605 0.093476504 0.034061242 0.11120277 0.19312163
0.103513435 -0.060322855 0.02706721 0.109705165 0.053885505 -0.026338212 -0.075139225 -0.04916574
-0.10928191 0.05382511 -0.09490092 -0.050762232 -0.10810043 -0.07118835 0.007135725 -0.085567035
0.038584918 0.06916326 -0.12717615 0.06580006 -0.06113876 -0.16371106 0.07439218 0.048095323
0.042100195 -0.010270786 0.041733652 0.046063863 -0.014765623 -0.088247366 -0.21001646 -0.051900204
-0.028320184 0.035617664 0.09961713 -0.023605868 0.070492215 -0.21046366 -0.043221235 0.09034385
-0.117091484 0.114152305 0.040357687 -0.07957323 0.071359836 0.03413771 -0.042481 0.06307486
0.13745718 0.068292595 -0.04343333 0.0012303279 0.053004242 0.042077452 -0.086028636 -0.15396638
-0.021158794 0.055457696 -0.049160313 -0.023564646 -0.09037693 0.086488396 -0.15159076 -0.033588354
0.15945746 0.020620463 0.04805119 0.043280892 -0.021436948 0.043443855 -0.13356571 -0.17490906
-0.01703778 -0.038477164 -0.049220927 0.03736419 0.09597114 0.04094637 -0.09812811 0.08487138
0.00046768712 0.040813982 0.09555832 0.14114085 -0.095422044 -0.07807231 -0.08503056 -0.11471209
0.0243639 0.110637896 -0.12448471 -0.037045732 0.0024366435 0.068808444 0.034515914 -0.09398154
-0.13116045 0.021831766 -0.05741343 0.0388774 -0.11127943 0.26840076 -0.1276779 -0.1297739
-0.030524923 -0.03015836 0.061418112 -0.06495609 0.09092497 -0.094520964 -0.14969692 0.11235627
-0.034620356 0.082648315 -0.14703934 0.07859651 -0.0010351173 0.15177712 0.006124551 0.07249866
-0.052572314 0.0023029707 0.0057894127 -0.13091242 0.025876109 -0.05792304 -0.16680531 0.018078133
0.037011135 0.16274892 0.01929744 -0.20381793 -0.21612701 -0.04448468 0.11937975 -0.110617116
0.03483404 -0.10980152 -0.15967873 0.018698653 0.11442021 -0.003163182 0.05576859 -0.026580093
0.23364837 -0.15166274 0.0037343455 0.104657374 0.13827312 0.060140826 0.06362144 -0.03556136
-0.07391662 -0.034623507 -0.08241845 0.21212743 0.24837515 -0.06314165 0.067359604 -0.0023544235
-0.02000162 -0.22685976 -0.1991937 -0.010566295 -0.025880374 -0.29554608 0.14391136 0.13038002
-0.02003836 0.057185274 0.0940148 0.09399563 -0.05191182 -0.054050606 0.20464034 -0.24500845
00000000: fa57 11bd 49cf 01bd b102 9f3d 09fb 85bd
00000010: cc3f 92bb e174 18bd 2bb1 593d b23c 66bd
00000020: 23bf 9e3b 172c 21bd a206 28bc 50ea a0bd
00000030: 9941 61be 38ae 3ebd d585 5cbd c66d 38bd
00000040: 680c 903c f9f1 18bd 1397 2abd f334 783c
00000050: 8e30 893d d049 15be ed1e 8e3c 3836 163e
00000060: 5535 47bc 631b 33bd c434 813c a67d 3cbe
00000070: 7f51 7c3d 8165 ea3c 73fe c33d ba8d febd
00000080: 429f fa3d 3578 453c 5a2e 17bd b147 ecbd
00000090: 8ade 623d 34f1 bdbc f987 72bd e0a1 27be
000000a0: 4737 123d a5c6 bebd 22a4 3ebe 7b05 d73d
000000b0: 6701 23bd 25b2 32bd 60a1 c4bd e148 48be
000000c0: bb07 19bd 1f2e b5bc db80 f33d 0858 2c3d
000000d0: 16ea 5fbd a816 303e b3f2 533e c69c 81bc
000000e0: e2c4 ddbc 6040 b93d 90cb e5bb bfc1 183d
000000f0: 37a1 febd 6cc5 123e 6848 9fbc 0921 d13d
00000100: 49bf e83d c838 a33d 4873 b7bb 9aa4 053d
00000110: 7ba2 b73d 4460 e8bc 0385 0bbd 50bf ddbc
00000120: 9dba 58bc 6b5a b2bd dd7f 21be 998a e3bc
00000130: 9c70 bf3d cd83 0b3d 47be e33d adc1 453e
00000140: dafe d33d 1915 77bd 0ebc dd3c 1aad e03d
00000150: 0cb7 5c3d 3cc3 d7bc 98e2 99bd 0462 49bd
00000160: 32cf dfbd b877 5c3d 6a5b c2bd 0fec 4fbd
00000170: c263 ddbd 33cb 91bd cdd2 e93b c53d afbd
00000180: 380b 1e3d 78a5 8d3d 773a 02be 2fc2 863d
00000190: a36c 7abd dfa3 27be ed5a 983d 9aff 443d
000001a0: 4171 2c3d cc46 28bc e8f0 2a3d 76ad 3c3d
000001b0: 83eb 71bc 09bb b4bd 8e0e 57be 4f95 54bd
000001c0: bbff e7bc d4e3 113d 1104 cc3d 1861 c1bc
000001d0: 395e 903d c983 57be c008 31bd 3206 b93d
000001e0: a9cd efbd afc8 e93d 1a4e 253d 4af7 a2bd
000001f0: 1b25 923d fcd3 0b3d 8f00 2ebd 642d 813d
00000200: 93c1 0c3e fddc 8b3d 26e7 31bd f442 a13a
00000210: fa1a 593d 6859 2c3d c82f b0bd 5da9 1dbe
00000220: 3555 adbc 9c27 633d 535c 49bd a50a c1bc
00000230: 8a17 b9bd d420 b13d 9c3a 1bbe f193 09bd
00000240: d148 233e 3fec a83c 53d1 443d 4e47 313d
00000250: 8a9c afbc 2ff2 313d 73c5 08be 5c1b 33be
00000260: d092 8bbc 3b9a 1dbd e29b 49bd 310b 193d
00000270: 848c c43d 62b7 273d 64f7 c8bd 0cd1 ad3d
00000280: e733 f539 902c 273d 15b4 c33d 3a87 103e
00000290: a26c c3bd 60e4 9fbd 8124 aebd 2cee eabd
000002a0: cd96 c73c 1f96 e23d d7f1 febd 44bd 17bd
000002b0: 18b0 1f3b 71eb 8c3d 8f60 0d3d 6579 c0bd
000002c0: ed4e 06be 88d8 b23c 582a 6bbd e93d 1f3d
000002d0: 78e6 e3bd d36b 893e ffbd 02be 73e3 04be
000002e0: 670f fabc aa0e f7bc 8f91 7b3d b307 85bd
000002f0: df36 ba3d 3594 c1bd 264a 19be 0b1b e63d
00000300: 13ce 0dbd 8543 a93d 7b91 16be 35f7 a03d
00000310: c6ac 87ba 766b 1b3e 75b0 c83b 2d7a 943d
00000320: 1156 57bd 70ed 163b 1db5 bd3b e80d 06be
00000330: 22fa d33c b640 6dbd 03cf 2abe 9818 943c
00000340: fd98 173d a7a7 263e aa15 9e3c a6b5 50be
00000350: 6650 5dbe 9135 36bd 5f7d f43d 3a8b e2bd
00000360: 23ae 0e3d 9fdf e0bd d282 23be eb2d 993c
00000370: 2555 ea3d 634d 4fbb 9b6d 643d 7fbe d9bc
00000380: 8541 6f3e 7a4d 1bbe ecbb 743b 9b56 d63d
00000390: 7897 0d3e 3a56 763d f54b 823d caa8 11bd
000003a0: 9961 97bd 61d1 0dbd 01cb a8bd ef37 593e
000003b0: 0e56 7e3e 6950 81bd d5f3 893d ac4c 1abb
000003c0: 70da a3bc ed4d 68be 6ff9 4bbe 411e 2dbc
000003d0: 1403 d4bc d151 97be 805d 133e 5782 053e
000003e0: 7d27 a4bc 1b3b 6a3d d58a c03d c880 c03d
000003f0: 7da1 54bd 2b64 5dbd 3d8d 513e 7fe3 7abe

fc1.bias f4 [64]
-0.004966067 -0.02279648 0.031489484 0.02959793 -0.010051462 0.030759286 -3.3062428e-09 0.018994857
-0.03051834 0.044918213 -0.016128855 0.033164613 0.02568185 -1.5413645e-22 -0.008821144 0.047063224
-0.03417264 -0.018681193 0.035089802 0.02289386 -0.0053148274 -0.014350242 0.030158665 0.027343145
0.015472429 -0.013760234 0.05333446 -0.003228869 -0.006865952 0.036038704 0.021977704 -0.011396651
0.020773299 0.04062899 -0.012096247 -0.013568488 0.012755731 -0.049629427 0.028325753 -1.5500748e-07
0.043502778 0.037926573 -0.018605193 -0.014439089 -0.032931756 -0.008310498 -0.030983021 0.053640015
0.030691357 -0.00923205 0.02064409 -0.0146276085 0.050482493 -0.006773682 -0.014430682 -0.029308092
0.033651147 -0.009325371 -0.009574695 -0.007981309 -0.0107800495 -0.014561343 -0.00342488 -0.0076349876
00000000: 64ba a2bb afbf babc 1efb 003d 5c77 f23c
00000010: e3ae 24bc e6fa fb3c 0a34 63b1 1a9b 9b3c
00000020: 9901 fabc 29fc 373d a920 84bc 9ed7 073d
00000030: be62 d23c ec56 3a9b 8f86 10bc 5ec5 403d
00000040: 9cf8 0bbd 4d09 99bc 53ba 0f3d e78b bb3c
00000050: 0128 aebb 471d 6bbc 4e0f f73c bbfe df3c
00000060: 1280 7d3c 9b72 61bc 3c75 5a3d 6f9b 53bb
00000070: c8fb e0bb 529d 133d 960a b43c 05b9 3abc
00000080: c42c aa3c 956a 263d 562f 46bc 5d4e 5ebc
00000090: 6afd 503c 3a48 4bbd 690b e83c 2270 26b4
000000a0: f82f 323d e558 1b3d eb69 98bc ee91 6cbc
000000b0: 73e3 06bd c128 08bc 1bd0 fdbc a2b5 5b3d
000000c0: 716c fb3c 0642 17bc cb1d a93c a3a8 6fbc
000000d0: bbc6 4e3d c3f5 ddbb ab6e 6cbc 8617 f0bc
000000e0: c9d5 093d 71c9 18bc 2edf 1cbc 09c4 02bc
000000f0: ce9e 30bc b392 6ebc f473 60bb eb2e fabb

bn1.weight f4 [64]
1.0327097 0.67613703 0.9020571 0.9489693 2.238948e-19 0.88938016 2.2218092e-19 0.9248773
0.99719673 0.86345434 1.0732687 0.95442975 0.85436696 2.229014e-19 5.424803e-13 0.91132516
0.7728156 0.86821413 0.95267826 0.8161312 2.7510153e-19 5.072568e-07 0.9221602 0.8182861
0.88615096 0.74044055 0.7657681 1.0423998 1.0479829 0.90571165 0.8257511 1.4693844e-08
0.81752366 0.98042995 1.347608e-10 6.4146453e-15 0.93816537 0.8898359 0.91701525 2.2220436e-19
0.77624166 0.9828225 0.8240904 0.00031126683 0.8489571 2.2372371e-19 0.94963616 0.9899935
0.9827359 3.1627143e-15 0.9509122 0.869826 0.8931178 1.1909473e-13 4.7075952e-07 0.8400979
1.087964 1.052147 2.6203924e-18 3.470548e-17 4.296413e-07 0.86847615 2.241215e-19 2.1653671e-16
00000000: d52f 843f 5117 2d3f 37ed 663f a7ef 723f
00000010: 072a 8420 6bae 633f 0827 8320 c2c4 6c3f
00000020: 4948 7f3f 580b 5d3f de60 893f 8255 743f
00000030: cbb7 5a3f e893 8320 d3b1 182b 9b4c 693f
00000040: 3ed7 453f 4843 5e3f b9e2 733f f9ed 503f
00000050: 2b64 a220 6c2a 0835 b112 6c3f 337b 513f
00000060: cada 623f 838d 3d3f 6109 443f 5b6d 853f
00000070: 4e24 863f b8dc 673f 6d64 533f 3670 7c32
00000080: 3b49 513f 75fd 7a3f cb2b 142f a91c e727
00000090: 9b2b 703f 49cc 633f 83c1 6a3f 932a 8320
000000a0: c6b7 463f 419a 7b3f 97f7 523f 8731 a339
000000b0: 4155 593f 2c10 8420 5b1b 733f 3770 7d3f
000000c0: 9494 7b3f c8e5 6327 fb6e 733f ebac 5e3f
000000d0: 5ea3 643f b816 062a b2bc fc34 a810 573f
000000e0: 6842 8b3f c1ac 863f d059 4122 000d 2024
000000f0: 73a9 e634 7454 5e3f 494c 8420 5ba6 7925

bn1.bias f4 [64]
0.080603875 -0.024585433 0.42473844 0.110246494 -0.02353503 0.16610618 0.0007714734 0.1649717
0.02974357 0.10014197 0.019527983 0.18826364 0.20260726 0.0024775306 0.018690087 -0.26046133
0.0027001768 -0.021418938 0.052946147 0.10906623 0.0066061527 0.013582975 -0.15010588 0.04596617
-0.20816356 0.029870382 0.13337067 0.12830856 0.11526257 0.034664292 -0.2685477 -0.020305794
0.3220341 0.055324737 0.040807735 0.016763452 -0.12722458 -0.032508384 0.14126965 0.0071961605
-0.03977515 0.17278463 -0.11471594 0.03563335 -0.020432083 -0.02544496 0.017166477 -0.25143823
-0.06419225 0.016317759 0.04730073 -0.016632235 -0.21222442 -0.02074265 0.04321513 -0.007875867
-0.06734525 0.04632203 -0.038563542 -0.034479633 0.031463023 -0.02288018 0.0069472976 -0.020133566
00000000: a513 a53d 6467 c9bc 5177 d93e eac8 e13d
00000010: 89cc c0bc bd17 2a3e b43c 4a3a 57ee 283e
00000020: caa8 f33c 3c17 cd3d 26f9 9f3c 2fc8 403e
00000030: 4778 4f3e 115e 223b f41b 993c 305b 85be
00000040: 73f5 303b c576 afbc 0fde 583d 1e5e df3d
00000050: 6d78 d83b 208b 5e3c 5bb5 19be 0647 3c3d
00000060: d428 55be bbb2 f43c 5292 083e 5263 033e
00000070: c80e ec3d 25fc 0d3d 167f 89be 5658 a6bc
00000080: a7e1 a43e 319c 623d 0326 273d 8253 893c
00000090: 2947 02be 8327 05bd fea8 103e c5cd eb3b
000000a0: 45eb 22bd 74ee 303e 31f0 eabd 47f4 113d
000000b0: 2f61 a7bc f371 d0bc b6a0 8c3c 83bc 80be
000000c0: 3a77 83bd d2ac 853c 69be 413d 5340 88bc
000000d0: 5c51 59be 7dec a9bc 5902 313d c809 01bc
000000e0: 4eec 89bd 2bbc 3d3d cef4 1dbd 843a 0dbd
000000f0: 5fdf 003d 376f bbbc 28a6 e33b 26ef a4bc

bn1.running_mean f4 [64]
0.00073704123 6e-45 0.031687327 0.030220773 6e-45 0.030409275 6e-45 0.01802037
2.6424e-41 0.04383512 0.000117271906 0.034388974 0.026200559 6e-45 6e-45 0.048206955
1.7944907e-05 4.9032487e-08 0.0369542 0.02499222 6e-45 6e-45 0.03102589 0.027685538
0.017023548 6e-45 0.05309787 0.0010107069 0.00061750313 0.036333617 0.021639151 6e-45
0.01837739 0.040515404 6e-45 6e-45 0.013176107 6e-45 0.029309938 6e-45
0.041850455 0.03877334 3.8632898e-08 6e-45 6e-45 6e-45 4.226008e-37 0.054632153
0.030693473 6e-45 0.021422468 7.5601164e-11 0.0516139 6e-45 6e-45 6e-45
0.034379028 0.0003142535 6e-45 6e-45 6e-45 6e-45 6e-45 6e-45
00000000: 0036 413a 0400 0000 92ca 013d 8e91 f73c
00000010: 0400 0000 df1c f93c 0400 0000 749f 933c
00000020: a949 0000 748c 333d e0ef f538 74db 0c3d
00000030: 8ea2 d63c 0400 0000 0400 0000 a874 453d
00000040: 6588 9637 ca97 5233 4a5d 173d 7cbc cc3c
00000050: 0400 0000 0400 0000 022a fe3c c8cc e23c
00000060: f874 8b3c 0400 0000 277d 593d b279 843a
00000070: efdf 213a 8fd2 143d 9744 b13c 0400 0000
00000080: 2e8c 963c 7bf3 253d 0400 0000 0400 0000
00000090: 99e0 573c 0400 0000 651b f03c 0400 0000
000000a0: 626b 2b3d cbd0 1e3d 52ed 2533 0400 0000
000000b0: 0400 0000 0400 0000 b9cd 0f03 f7c5 5f3d
000000c0: e170 fb3c 0400 0000 2c7e af3c ac3f a62e
000000d0: 1969 533d 0400 0000 0400 0000 0400 0000
000000e0: 06d1 0c3d 64c2 a439 0400 0000 0400 0000
000000f0: 0400 0000 0400 0000 0400 0000 0400 0000

bn1.running_var f4 [64]
5.2376195e-06 6e-45 2.1868585e-05 1.4994845e-05 6e-45 1.6944477e-05 6e-45 1.5121346e-05
8.8e-44 1.4148212e-05 1.3814172e-06 1.5151288e-05 1.4637264e-05 6e-45 6e-45 1.5153036e-05
1.1925656e-06 1.0509069e-10 1.5418178e-05 1.1665694e-05 6e-45 6e-45 1.5172012e-05 1.0692114e-05
1.650647e-05 6e-45 1.5803429e-05 6.484341e-06 5.3962467e-06 1.36887775e-05 1.9706986e-05 6e-45
1.6250873e-05 1.4490813e-05 6e-45 6e-45 1.6459053e-05 6e-45 1.4500451e-05 6e-45
1.1750155e-05 1.4526088e-05 6.523973e-11 6e-45 6e-45 6e-45 2.66265e-40 1.8721725e-05
1.3707048e-05 6e-45 1.5946129e-05 2.6160617e-13 1.6097909e-05 6e-45 6e-45 6e-45
1.9288522e-05 3.357489e-06 6e-45 6e-45 6e-45 6e-45 6e-45 6e-45
00000000: cfbe af36 0400 0000 6e72 b737 5e92 7b37
00000010: 0400 0000 fd23 8e37 0400 0000 b0b1 7d37
00000020: 3f00 0000 1c5e 6d37 2269 b935 4932 7e37
00000030: 9292 7537 0400 0000 0400 0000 cb39 7e37
00000040: 3e10 a035 cd18 e72e 4956 8137 c6b7 4337
00000050: 0400 0000 0400 0000 4c8b 7e37 4862 3337
00000060: 6077 8a37 0400 0000 9b91 8437 1194 d936
00000070: 6811 b536 daa8 6537 6e50 a537 0400 0000
00000080: 7c52 8837 911d 7337 0400 0000 0400 0000
00000090: 8c11 8a37 0400 0000 f646 7337 0400 0000
000000a0: 8822 4537 13b5 7337 b476 8f2e 0400 0000
000000b0: 0400 0000 0400 0000 3de6 0200 990c 9d37
000000c0: 53f7 6537 0400 0000 0dc4 8537 6c45 932a
000000d0: ff09 8737 0400 0000 0400 0000 0400 0000
000000e0: c9cd a137 3951 6136 0400 0000 0400 0000
000000f0: 0400 0000 0400 0000 0400 0000 0400 0000

fc2.weight f4 [16, 64]
-0.17663711 -0.018357916 0.014010856 0.060622364 -0.13942747 -0.045067284 0.103383414 0.023436707
-0.06324544 -0.062302746 -0.2528521 0.025085678 0.0064339996 0.038849134 0.13899907 -0.026339967
-0.043852452 -0.05588971 -0.002265929 0.0060213236 0.019393362 -0.082644075 -0.061675094 0.049724728
-0.07076798 -0.020793648 -0.0038343533 -0.23046856 -0.32568645 0.08647594 -0.040987466 0.005776352
-0.019015007 0.004140942 0.094117895 0.102925174 -0.088953115 -0.059134543 0.17425105 0.061630454
-0.053492855 0.02518456 -0.005502355 0.011139469 0.018911578 0.029144282 0.05589084 0.005617492
0.15224656 -0.0022931981 0.03635683 0.039342683 0.04053292 -0.08844514 0.008381425 0.051662184
0.089130595 0.16807571 -0.037894323 -0.09579972 0.13425498 0.023364656 0.08435099 -0.11394332
0.059694592 0.027492164 0.017209996 -0.025117189 -0.022076009 -0.012470731 0.04515714 -0.1703393
-0.03427361 -0.053189952 0.053268593 0.12696347 -0.066309094 0.007340871 0.030136371 0.3388674
-0.081441075 0.086174406 0.05787963 0.16987996 0.054346677 0.03981287 0.14596035 0.05361935
0.0022608708 -0.06386672 0.017544352 0.07514768 0.019902121 0.04164643 -0.07235933 0.004099825
-0.18708661 0.03965875 0.025616093 0.018881096 0.14865613 0.05998368 0.01657039 -0.009944595
-0.110957846 0.081290476 -0.04688447 0.030581186 -0.07940994 0.022314794 -0.1028375 0.010214828
-0.09194074 -0.058753118 0.11677349 -0.003438127 0.0806484 0.011541808 -0.010213052 -0.048467528
-0.01227627 -0.17371769 0.08461079 0.007757079 -0.017469577 0.047896776 0.00562473 0.12019883
-0.16566366 -0.12282873 -0.4150861 -0.03593423 -0.034610745 -0.118348174 0.06308277 0.014213614
0.07762077 -0.014901802 -0.1897783 -0.026973605 -0.084733345 0.03215956 -0.013721008 0.025109803
-0.083687685 0.080581225 -0.10389879 0.08225813 0.030566264 0.06546045 0.05852052 0.15928249
0.027470563 -0.004735077 -0.21152303 -0.116015725 -0.10189847 0.008876849 0.40561214 -0.03920128
-0.005512042 -0.029790074 0.017978378 0.055455904 0.030272158 0.023458077 -0.0653356 0.060174335
-0.08597632 0.0050311093 -0.08013205 0.088799044 -0.03800123 -0.040043835 0.04562995 -0.010489694
-0.050858945 0.012540691 -0.1301221 -0.029257676 -0.003671931 -0.0321134 0.049320262 0.10762328
-0.10870711 0.11015865 -0.056974567 -0.026012847 0.016861971 0.0046164733 0.029003413 -0.093600884
0.017144054 0.035074115 0.032683775 -0.042845298 -0.11037352 0.036719333 0.078977734 -0.053715523
0.027944172 -0.1408816 0.12797214 -0.14707638 0.08256034 0.08274511 0.08852995 0.28101972
0.076403186 -0.029824946 0.07256595 0.066168636 -0.012934367 0.003890032 0.19303429 0.005986475
0.11050056 0.039406773 0.031083656 0.084568895 0.0674949 0.029791627 0.025443295 -0.060241047
-0.008931428 -0.00886685 0.13997856 0.077755205 -0.101509824 0.0824994 -0.011796593 0.06233558
-0.08823549 0.06749808 -0.047670297 0.18446764 -0.047439296 -0.1711401 -0.06647111 0.3772725
-0.054939095 0.1663438 -0.02568618 -0.099274494 0.057936523 -0.119084015 0.1656788 -0.011902096
-0.041194204 -0.17195481 -0.064496025 -0.1408554 0.17666799 0.051524553 0.0594314 -0.12057396
00000000: 5ce0 34be 5763 96bc ca8d 653c 284f 783d
00000010: 13c6 0ebe 7998 38bd afba d33d 56fe bf3c
00000020: d386 81bd 2a31 7fbd d575 81be 7b80 cd3c
00000030: 4dd4 d23b 4520 1f3d c655 0e3e eac6 d7bc
00000040: a19e 33bd 9cec 64bd fb7f 14bb 864e c53b
00000050: d4de 9e3c 4c41 a9bd 069f 7cbd 28ac 4b3d
00000060: cdee 90bd 7157 aabc c649 7bbb f3ff 6bbe
00000070: 60c0 a6be 4c1a b13d 79e2 27bd 8d47 bd3b
00000080: 5cc5 9bbc bdb0 873b e2c0 c03d 6fca d23d
00000090: 0d2d b6bd 1037 72bd de6e 323e 3770 7c3d
000000a0: 531b 5bbd da4f ce3c 194d b4bb 5282 363c
000000b0: 74ec 9a3c fdbf ee3c cbed 643d f012 b83b
000000c0: 86e6 1b3e 7b49 16bb e6ea 143d cb25 213d
000000d0: d905 263d ba22 b5bd 3f52 093c ba9b 533d
000000e0: 1a8a b63d 0a1c 2c3e 1437 1bbd a532 c4bd
000000f0: 237a 093e 3c67 bf3c 36c0 ac3d 1e5b e9bd
00000100: 5182 743d 3f37 e13c fafb 8c3c 90c2 cdbc
00000110: bfd8 b4bc 0952 4cbc b1f6 383d 6d6d 2ebe
00000120: 7c62 0cbd b5dd 59bd 2b30 5a3d b602 023e
00000130: 10cd 87bd b08b f03b 8de0 f63c 0780 ad3e
00000140: 94ca a6bd 357c b03d 3113 6d3d 03f5 2d3e
00000150: 9f9a 5e3d d212 233d a176 153e f79f 5b3d
00000160: 1e2b 143b 8ecc 82bd 2cb9 8f3c 07e7 993d
00000170: c609 a33c 7295 2a3d 2131 94bd d357 863b
00000180: a293 3fbe 3771 223d d7d8 d13c 87ac 9a3c
00000190: 5039 183e 72b1 753d a0be 873c a8ee 22bc
000001a0: de3d e3bd 9f7b a63d ee09 40bd 6585 fa3c
000001b0: aea1 a2bd 84cd b63c 789c d2bd 185c 273c
000001c0: 6d4b bcbd 1ca7 70bd f126 ef3d 3352 61bb
000001d0: fd2a a53d da19 3d3c a554 27bc e385 46bd
000001e0: 6922 49bc 0de3 31be 6c48 ad3d 182f fe3b
000001f0: 5c1c 8fbc 692f 443d a84f b83b ce2a f63d
00000200: bca3 29be a18d fbbd 2a86 d4be c52f 13bd
00000210: ffc3 0dbd 8760 f2bd 8a31 813d 38e0 683c
00000220: a3f7 9e3d b026 74bc 3e55 42be c0f7 dcbc
00000230: ad88 adbd beb9 033d 14ce 60bc 13b3 cd3c
00000240: 7364 abbd c507 a53d e4c8 d4bd f376 a83d
00000250: 1a66 fa3c 2110 863d 36b3 6f3d f31a 233e
00000260: f209 e13c b428 9bbb 7e99 58be a799 edbd
00000270: 25b0 d0bd 3470 113c 65ac cf3e 8591 20bd
00000280: 5c9e b4bb 500a f4bc 6447 933c bb25 633d
00000290: 51fd f73c 272b c03c acce 85bd 5d79 763d
000002a0: 5a14 b0bd 01dc a43b 461c a4bd 46dc b53d
000002b0: 2ea7 1bbd 0105 24bd 78e6 3a3d f7dc 2bbc
000002c0: 7851 50bd 7877 4d3c ba3e 05be cbad efbc
000002d0: c8a4 70bb 5789 03bd 0b04 4a3d 9869 dc3d
000002e0: d5a1 debd dc9a e13d 2a5e 69bd e518 d5bc
000002f0: 1e22 8a3c c945 973b 9198 ed3c d2b1 bfbd
00000300: b071 8c3c e0a9 0f3d 6cdf 053d 8d7e 2fbd
00000310: 830b e2bd 0367 163d 14bf a13d cf04 5cbd
00000320: 2deb e43c 4443 10be 210b 033e 319b 16be
00000330: 6515 a93d 4576 a93d 314f b53d d1e1 8f3e
00000340: 4679 9c3d 7253 f4bc 759d 943d 6c83 873d
00000350: abea 53bc e8ef 7e3b c8aa 453e 312a c43b
00000360: 1e4e e23d ff68 213d 27a3 fe3c 7532 ad3d
00000370: c43a 8a3d 920d f43c 756e d03c 51bf 76bd
00000380: 2055 12bc 4446 11bc 8a56 0f3e 1f3e 9f3d
00000390: 62e4 cfbd 72f5 a83d 7f46 41bc 9853 7f3d
000003a0: cfb4 b4bd 6f3c 8a3d ee41 43bd 16e5 3c3e
000003b0: b54f 42bd 5a3f 2fbe 0122 88bd dc29 c13e
000003c0: d107 61bd 0756 2a3e d36b d2bc 6d50 cbbd
000003d0: d94e 6d3d 52e2 f3bd b4a7 293e 0201 43bc
000003e0: 41bb 28bd ec14 30be 7e16 84bd 663c 10be
000003f0: 74e8 343e 690b 533d 576e 733d 7bef f6bd

fc2.bias f4 [16]
0.44781843 0.0330129 0.040336013 0.04488145 0.076059386 0.0984829 -0.11552355 0.019195355
-0.0055009923 0.17070736 0.37714237 0.11068661 -0.017296694 0.15756805 0.034132514 0.081669666
00000000: 7548 e53e 8938 073d 6037 253d 9cd5 373d
00000010: 06c5 9b3d 67b1 c93d 9c97 ecbd 943f 9d3c
00000020: ab41 b4bb e9cd 2e3e ce18 c13e a9af e23d
00000030: ccb1 8dbc 8559 213e 89ce 0b3d 6d42 a73d

bn2.weight f4 [16]
1.0942801 1.1582444 1.0309027 1.1633759 1.1846645 1.3100902 1.3212982 1.0970241
1.2538499 1.0152396 1.1162974 1.2156421 1.1047101 1.0569985 1.2359279 1.1428945
00000000: 5f11 8c3f 5a41 943f 9ff4 833f 80e9 943f
00000010: 16a3 973f 09b1 a73f 4d20 a93f 496b 8c3f
00000020: 277e a03f 5ff3 813f d5e2 8e3f 299a 9b3f
00000030: 2467 8d3f ba4b 873f e332 9e3f 5e4a 923f

bn2.bias f4 [16]
0.20907363 0.31880176 0.3661122 0.3243534 0.23576194 0.31400928 0.2685593 0.36580148
0.3736765 0.4031399 0.26265678 0.33289737 0.2573266 0.42587397 0.13456608 0.37408093
00000000: 6617 563e fc39 a33e 0f73 bb3e a611 a63e
00000010: 946b 713e d3c5 a03e 9b80 893e 554a bb3e
00000020: 8752 bf3e 5a68 ce3e f37a 863e 8671 aa3e
00000030: 50c0 833e 270c da3e b1cb 093e 8987 bf3e

bn2.running_mean f4 [16]
0.5990881 0.24917653 0.19951206 0.29707974 0.22174345 0.29337582 0.118716925 0.20751865
0.13311337 0.38944578 0.5994242 0.3776902 0.1929734 0.38685268 0.2300788 0.22937936
00000000: d65d 193f 2228 7f3e e44c 4c3e d61a 983e
00000010: b710 633e 5b35 963e dc21 f33d c57f 543e
00000020: df4e 083e 7065 c73e dd73 193f 9c60 c13e
00000030: d29a 453e 8e11 c63e c799 6b3e 6ce2 6a3e

bn2.running_var f4 [16]
0.22785205 0.30425456 0.18021592 0.4009413 0.2313888 0.3418224 0.11090763 0.14823692
0.11466807 0.2769146 0.30048293 0.50456226 0.20739889 0.27878642 0.20776486 0.14479853
00000000: 0c52 693e 41c7 9b3e 868a 383e 2e48 cd3e
00000010: 30f1 6c3e 5803 af3e 8a23 e33d 6bcb 173e
00000020: 18d7 ea3d c0c7 8d3e e6d8 993e fe2a 013f
00000030: 6060 543e 18bd 8e3e 50c0 543e 1146 143e

fc3.weight f4 [1, 16]
-0.30813327 0.49606168 -0.4622888 0.47144836 0.4536694 0.3997861 0.37986973 -0.36981425
-0.37947008 -0.41759348 -0.3107836 0.41600427 0.42497665 -0.3707656 0.31570196 -0.34893113
00000000: a5c3 9dbe ccfb fd3e 1eb1 ecbe ae61 f13e
00000010: 5b47 e83e c4b0 cc3e 497e c23e 4b58 bdbe
00000020: e749 c2be d0ce d5be 071f 9fbe 83fe d43e
00000030: 8a96 d93e fdd4 bdbe b0a3 a13e 1aa7 b2be
