DL models/DL_model_on_DL_vectors.pt (torch, 87747 bytes, 13 tensors)

fc1.weight f4 [64, 300]
-0.09265461 -0.06339397 -0.0124738375 0.038236707 0.10392957 0.019565621 0.08294011 -0.0143589545
-0.12555687 -0.05533358 0.05424887 0.070894375 0.10244404 0.102057435 -0.03938726 0.016910091
-0.051497255 0.16437669 -0.030229859 -0.0014607407 -0.037054114 0.1322685 0.072740294 -0.04288739
0.102901354 -0.044344034 -0.17618681 -0.11064432 -0.03598337 0.06433616 -0.037848413 -0.09915509
0.014602855 0.05382389 0.08927254 0.11165235 -0.10668754 0.001876367 0.049061306 -0.0022129477
-0.05440325 -0.023723999 0.016580714 0.0895296 -0.011977262 0.0060991864 0.07694988 -0.052461654
-0.18279275 -0.05105401 -0.044400398 0.034511168 -0.04344107 -0.045493 0.045757875 -0.11360176
0.053999532 0.023734216 -0.007054778 -0.08568601 0.05905102 0.09607649 -0.042259283 -0.06109551
-0.0031704998 0.15363638 -0.0051807337 0.071880065 -0.010779391 0.04075696 0.0100194225 -0.04789288
-0.009843199 -0.053624086 0.016604906 0.019035678 -0.0048408713 0.1155934 0.06654526 -0.0022924058
0.03967063 -0.052007522 -0.075633496 -0.01752855 0.021643998 -0.088746764 0.06791533 0.120641604
0.03725851 0.14746645 0.06670293 -0.0121030575 -0.09699272 -0.10297585 -0.012525687 0.024164245
-0.010655714 0.044423304 0.033623062 0.03396289 0.066570394 -0.03346464 -0.028223561 0.00380011
-0.12249233 -0.07816764 0.050125454 -0.057146918 0.069838814 0.0748526 -0.0849511 -0.022969486
-0.016750246 -0.16658685 0.002937559 0.026712455 0.067689 -0.07398568 -0.020514812 0.06064021
-0.026577547 -0.06293351 0.059545245 -0.028372206 -0.16960485 0.0612306 0.074391805 0.04081887
-0.052634697 -0.024915291 0.038452297 -0.03152157 0.03028326 -0.04785317 0.04040812 0.034434568
0.039313834 -0.051893026 -0.021857055 0.0410469 0.09724814 -0.12104795 0.069220446 -0.016097844
-0.030175868 -0.0049663535 0.14672375 0.122758634 0.15327412 0.016041487 -0.05884806 -0.026559414
-0.049718756 0.016356232 -0.011966977 -0.051984884 0.047024563 -0.025524441 0.07979858 0.11358385
-0.05255021 -0.06811409 -0.1315376 -0.07482985 -0.020051904 0.10059032 0.3504521 -0.1455763
0.03676119 0.040919892 0.020771844 0.004689946 -0.035837404 0.045593455 0.0133660585 0.03991995
-0.099161975 -0.09307501 -0.0612167 -0.003968026 -0.04827126 2.920934e-05 0.10934574 -0.13126284
-0.06098901 0.01934678 0.07779988 -0.15099864 0.020452917 -0.00016450431 -0.06875777 0.06615667
0.12626745 -0.06489629 -0.033129867 -0.08122651 -0.015463358 -0.09133959 -0.16290493 -0.022639422
0.0038870948 -0.040802386 0.023062577 -0.09426104 -0.051683046 -0.045750704 -0.1277658 -0.111912
-0.026533129 0.066568024 -0.0058427686 -0.06621543 -0.0020219444 -0.00027783087 0.07363535 -0.13138744
0.086080365 0.05266002 0.08973061 -0.17803195 -0.0015143754 -0.005855496 0.0029069504 0.08657213
0.061105322 0.20840625 0.0041062995 -0.115817286 -0.0074683437 -0.18850605 0.168458 0.0048859795
-0.046518747 0.11839821 0.0756717 0.106582314 -0.007969096 0.0028617508 -0.10169925 -0.08951247
0.0520105 -0.08584239 0.023541082 0.011893777 0.021267913 0.047573056 -0.16352403 0.03209497
0.111042306 0.083073206 -0.05747029 0.12758328 -0.019501043 0.017147785 -0.13947502 -0.06081201
00000000: b3c1 bdbd b3d4 81bd 115f 4cbc 189e 1c3d
00000010: 07d9 d43d 1548 a03c 81dc a93d d241 6bbc
00000020: fb91 00be 77a5 62bd 1034 5e3d 1231 913d
00000030: 2ece d13d 7d03 d13d 8954 21bd 0887 8a3c
00000040: c9ee 52bd 5d52 283e 9ca4 f7bc 5376 bfba
00000050: 0ec6 17bd 6571 073e ddf8 943d b0aa 2fbd
00000060: f2bd d23d 17a2 35bd 516a 34be 7d99 e2bd
00000070: 4c63 13bd adc2 833d f006 1bbd d311 cbbd
00000080: d040 6f3c 7076 5c3d 85d4 b63d fda9 e43d
00000090: ff7e dabd 6ef0 f53a 82f4 483d 1a07 11bb
000000a0: f1d5 5ebd d558 c2bc 47d4 873c 4c5b b73d
000000b0: 473c 44bc afdb c73b e697 9d3d 08e2 56bd
000000c0: 062e 3bbe 021e 51bd 31dd 35bd 955b 0d3d
000000d0: 43ef 31bd de56 3abd 9c6c 3b3d 0aa8 e8bd
000000e0: 9d2e 5d3d 426e c23c c42b e7bb 267c afbd
000000f0: 7bdf 713d c0c3 c43d 1218 2dbd 493f 7abd
00000100: 29c8 4fbb db52 1d3e 25c3 a9bb db35 933d
00000110: 0b9c 30bc c5f0 263d 8128 243c 532b 44bd
00000120: 5e45 21bc eea4 5bbd 0307 883c b6f0 9b3c
00000130: 2ca0 9ebb 3cbc ec3d e248 883d 303c 16bb
00000140: ac7d 223d d705 55bd bce5 9abd 0998 8fbc
00000150: c14e b13c ddc0 b5bd 3117 8b3d f212 f73d
00000160: 619c 183d 7201 173e 8c9b 883d e74b 46bc
00000170: 1fa4 c6bd 01e5 d2bd 8a38 4dbc 18f4 c53c
00000180: 4e95 2ebc 36f5 353d 56b8 093d ac1c 0b3d
00000190: 0f56 883d 3812 09bd 1935 e7bc 440b 793b
000001a0: 42dd fabd 5b16 a0bd 5950 4d3d e312 6abd
000001b0: a707 8f3d 524c 993d d8fa adbd 812a bcbc
000001c0: d037 89bc be95 2abe 1084 403b 14d4 da3c
000001d0: 88a0 8a3d ce85 97bd ae0e a8bc de61 783d
000001e0: 28b9 d9bc 49e3 80bd b7e5 733d d46c e8bc
000001f0: e5ac 2dbe f0cc 7a3d bb5a 983d b031 273d
00000200: 7b97 57bd 271b ccbc 2880 1d3d c31c 01bd
00000210: 9914 f83c b001 44bd fc82 253d 430b 0d3d
00000220: 8b07 213d c88d 54bd 910d b3bc cb20 283d
00000230: 082a c73d fde7 f7bd 73c3 8d3d a0df 83bc
00000240: 6233 f7bc cbbc a2bb c03e 163e e168 fb3d
00000250: e4f3 1c3e 7069 833c aa0a 71bd 2193 d9bc
00000260: e5a5 4bbd 81fd 853c 2411 44bc 1aee 54bd
00000270: d49c 403d a218 d1bc 706d a33d a69e e83d
00000280: e43e 57bd 667f 8bbd cbb1 06be 6440 99bd
00000290: e443 a4bc 4c02 ce3d 756e b33e f411 15be
000002a0: e792 163d 9e9b 273d b729 aa3c 1eae 993b
000002b0: 3eca 12bd 34c0 3a3d 50fd 5a3c 1a83 233d
000002c0: 6f15 cbbd 1c9e bebd 5dbe 7abd 3706 82bb
000002d0: 16b8 45bd 9406 f537 a9f0 df3d c469 06be
000002e0: 9dcf 79bd 237d 9e3c 8b55 9f3d 639f 1abe
000002f0: e08c a73c ca7e 2cb9 e0d0 8cbd 267d 873d
00000300: 414c 013e 59e8 84bd 2fb3 07bd 165a a6bd
00000310: 065a 7dbc 4010 bbbd 8dd0 26be 4f76 b9bc
00000320: a1be 7e3b 6720 27bd bbed bc3c ef0b c1bd
00000330: 9ab1 53bd 1765 3bbd 0ad5 02be 1e32 e5bd
00000340: 015c d9bc d154 883d b274 bfbb f59b 87bd
00000350: 9982 04bb d4a9 91b9 21ce 963d 6e8a 06be
00000360: e74a b03d 08b2 573d afc4 b73d 024e 36be
00000370: 027e c6ba 76df bfbb 8982 3e3b bb4c b13d
00000380: 9349 7a3d 7368 553e 238e 863b 9d31 edbd
00000390: 02b9 f4bb bb07 41be 4180 2c3e 911a a03b
000003a0: 718a 3ebd c37a f23d c4f9 9a3d d447 da3d
000003b0: d090 02bc 368c 3b3b b247 d0bd 5052 b7bd
000003c0: f608 553d 23ce afbd 3ad9 c03c 1ede 423c
000003d0: 0c3a ae3c f7db 423d d872 27be 0476 033d
000003e0: 266a e33d 4922 aa3d f865 6bbd 31a5 023e
000003f0: a7c0 9fbc 8379 8c3c 8ad2 0ebe 0416 79bd

fc1.bias f4 [64]
-0.14689036 -0.48657396 -0.3466252 -0.46731165 -0.77032477 -0.18151115 -0.34461206 -0.60292256
-0.44279197 -0.50718844 -0.6283955 -0.7981389 -0.48114386 -0.7242474 -0.47424984 -0.56421554
-0.36247197 -0.51956373 -0.29387504 -0.7354071 -0.4280102 -1.0102412 -0.51614565 -0.18329406
-0.34222913 -0.4272565 -0.37792748 -0.41650653 -0.61444 -0.29262233 -0.78877455 -0.1872121
-0.305236 -0.3624427 -0.662996 -0.34476373 -0.63009137 -0.69119835 -0.45627314 -0.78754824
-0.5877499 -0.5759963 -0.40409687 -0.33351934 -0.40613863 -0.5813071 -0.1432602 -0.41969672
-0.3969217 -0.42132849 -0.62100506 -0.68602836 -0.39790127 -0.8446452 -0.4079277 -0.48472387
-0.2563182 -0.7376531 -0.3391811 -0.8031666 -0.3467022 -0.59783155 -0.57695264 -0.34285203
00000000: 6d6a 16be 3920 f9be dc78 b1be 7943 efbe
00000010: 0134 45bf 0fde 39be fe70 b0be 2259 1abf
00000020: a1b5 e2be 1ad7 01bf 87de 20bf d552 4cbf
00000030: 7d58 f6be 4768 39bf e0d0 f2be 6e70 10bf
00000040: ed95 b9be 2102 05bf ca76 96be a443 3cbf
00000050: 2724 dbbe 954f 81bf 1f22 04bf 70b1 3bbe
00000060: a838 afbe 5dc1 dabe b67f c1be 5840 d5be
00000070: f14b 1dbf 98d2 95be 21ed 49bf 87b4 3fbe
00000080: e547 9cbe 1792 b9be 1bba 29bf df84 b0be
00000090: ab4d 21bf 60f2 30bf a29c e9be c39c 49bf
000000a0: c776 16bf 7e74 13bf c9e5 cebe 0cc3 aabe
000000b0: 67f1 cfbe 8bd0 14bf cdb2 12be 7de2 d6be
000000c0: 5239 cbbe 5eb8 d7be 30fa 1ebf 8e9f 2fbf
000000d0: b7b9 cbbe ab3a 58bf e6db d0be ba2d f8be
000000e0: 243c 83be d5d6 3cbf 25a9 adbe 549c 4dbf
000000f0: f382 b1be 7d0b 19bf 2bb3 13bf 4d8a afbe

bn1.weight f4 [64]
0.8971359 0.9484379 0.9282115 0.9905665 0.88559335 0.8693392 0.9177444 0.92937344
0.9004666 0.96014446 0.9268201 1.0212958 0.9115226 0.93024695 0.9065448 0.92957366
0.9376114 0.89224416 0.9587318 0.91426903 0.88992226 0.91868573 0.91602564 0.85365754
0.9412762 0.9349982 0.9540225 0.9291856 0.98764586 1.0129822 0.9313934 0.95698225
0.98033744 1.0103532 0.9536099 0.89081335 0.96498793 0.9309035 0.8710141 0.9197493
0.9285289 0.94658643 0.8862066 0.946668 0.88936794 0.93488383 0.9712051 0.91758233
0.9503571 1.1537178 1.0003643 0.927184 1.0741677 1.0232265 0.96289504 0.88161534
0.91417396 0.91481143 1.1091266 0.92338854 0.9474611 0.94927335 0.970962 0.92868835
00000000: b3aa 653f d4cc 723f 459f 6d3f c495 7d3f
00000010: 3fb6 623f 048d 5e3f 4cf1 6a3f 6beb 6d3f
00000020: fb84 663f 07cc 753f 1544 6d3f d2b9 823f
00000030: 8c59 693f aa24 6e3f 5213 683f 8af8 6d3f
00000040: 4d07 703f 1d6a 643f 726f 753f 890d 6a3f
00000050: f2d1 633f fd2e 6b3f a880 6a3f 4d89 5a3f
00000060: 7af7 703f 0b5c 6f3f d23a 743f 1cdf 6d3f
00000070: 5cd6 7c3f 67a9 813f cc6f 6e3f cafc 743f
00000080: 65f7 7a3f 4153 813f c71f 743f 580c 643f
00000090: 7309 773f b14f 6e3f c8fa 5e3f b174 6b3f
000000a0: 12b4 6d3f 7d53 723f 70de 623f d658 723f
000000b0: 9ead 633f 8c54 6f3f e6a0 783f ade6 6a3f
000000c0: 9a4a 733f 06ad 933f f00b 803f ee5b 6d3f
000000d0: 547e 893f 16f9 823f 4a80 763f 8bb1 613f
000000e0: 4e07 6a3f 1531 6a3f dcf7 8d3f 3163 6c3f
000000f0: d08c 723f 9403 733f f790 783f 85be 6d3f

bn1.bias f4 [64]
0.20325848 0.2349919 0.14776403 0.27657947 0.10870362 0.27834147 0.27387232 0.07617609
0.17227475 0.22838789 0.118038945 0.08812379 0.19857909 0.088334136 0.17692919 0.1855885
0.11824062 0.10874582 0.20377553 0.1492223 0.12742357 0.037270863 0.12058558 0.21420583
0.21436948 0.23813547 0.28963542 0.1832412 0.23058376 0.24968705 0.10257867 0.29965505
0.2866354 0.22108725 0.10361427 0.20573264 0.15756808 0.16347793 0.13839492 0.1600214
0.18831705 0.1138708 0.15508386 0.23518036 0.18223503 0.09997844 0.27035385 0.11321424
0.2650246 0.2820629 0.21294563 0.033786353 0.25297508 0.06850162 0.20178443 0.21203709
0.28720596 0.11349253 0.25761053 0.10849177 0.24568087 -0.025734773 0.123711534 0.25889906
00000000: fe22 503e b7a1 703e 744f 173e d39b 8d3e
00000010: 01a0 de3d c682 8e3e fe38 8c3e 3602 9c3d
00000020: cb68 303e 84de 693e 67be f13d 3f7a b43d
00000030: 5158 4b3e 87e8 b43d ed2c 353e e90a 3e3e
00000040: 2328 f23d 21b6 de3d 88aa 503e bbcd 183e
00000050: 537b 023e 55a9 183d 93f5 f63d c658 5b3e
00000060: ac83 5b3e c9d9 733e 184b 943e 95a3 3b3e
00000070: 261e 6c3e f6ad 7f3e c414 d23d 636c 993e
00000080: e0c1 923e b264 623e b833 d43d 94ab 523e
00000090: 8759 213e c266 273e 66b7 0d3e a6dc 233e
000000a0: 2fd6 403e 1835 e93d 4ece 1e3e 1fd3 703e
000000b0: d29b 3a3e 7fc1 cc3d d26b 8a3e dedc e73d
000000c0: 4eb1 873e 8c6a 903e 6b0e 5a3e 8f63 0a3d
000000d0: f385 813e 944a 8c3d 94a0 4e3e 4020 593e
000000e0: a90c 933e c66e e83d 87e5 833e ef30 de3d
000000f0: c493 7b3e bbd1 d2bc 795c fd3d 6b8e 843e

bn1.running_mean f4 [64]
0.28905976 0.23168065 0.37653986 0.24684422 0.10582412 0.37292627 0.2845981 0.21244742
0.18429765 0.20996961 0.114779964 0.10573822 0.16952886 0.13068609 0.26803786 0.20205162
0.27242905 0.19596922 0.2102939 0.07861114 0.3326478 0.086358935 0.19037198 0.32420778
0.22794607 0.22130336 0.25724453 0.19463077 0.22735634 0.3044359 0.1002778 0.39402378
0.2809114 0.21486932 0.14794987 0.27494386 0.15598388 0.16266347 0.20222543 0.11381573
0.13728815 0.17707492 0.29569012 0.3002007 0.24656978 0.16792387 0.3823549 0.1983223
0.24467257 0.29331815 0.18849213 0.12356269 0.2819107 0.12022419 0.20177552 0.21165067
0.27330613 0.09285728 0.25092387 0.10382211 0.24392541 0.21576515 0.16762237 0.29330128
00000000: a4ff 933e b13d 6d3e d5c9 c03e bbc4 7c3e
00000010: 51ba d83d 31f0 be3e d8b6 913e d18b 593e
00000020: 86b8 3c3e 4602 573e c211 eb3d 488d d83d
00000030: f998 2d3e 93d2 053e 423c 893e 9fe6 4e3e
00000040: d27b 8b3e 28ac 483e 4957 573e e1fe a03d
00000050: d050 aa3e f4dc b03d dff0 423e 90fe a53e
00000060: b26a 693e 599d 623e 8eb5 833e 4a4d 473e
00000070: 1ad0 683e 06df 9b3e 725e cd3d 7cbd c93e
00000080: 9ed3 8f3e b406 5c3e 2c80 173e 71c5 8c3e
00000090: 3dba 1f3e 4191 263e 2f14 4f3e 3918 e93d
000000a0: 4495 0c3e 2153 353e b264 973e e8b3 993e
000000b0: ca7c 7c3e 3cf4 2b3e 05c4 c33e 0015 4b3e
000000c0: 728b 7a3e cc2d 963e 1504 413e 700e fd3d
000000d0: 9956 903e 1a38 f63d 3e9e 4e3e f4ba 583e
000000e0: c8ee 8b3e f52b be3d 1879 803e b0a0 d43d
000000f0: 95c7 793e 8af1 5c3e 33a5 2b3e 962b 963e

bn1.running_var f4 [64]
0.27997163 0.25871643 0.55498785 0.2835373 0.12443528 0.42924577 0.3980558 0.21980084
0.18709467 0.2637073 0.119197555 0.123556584 0.16325942 0.13988931 0.3728242 0.24148238
0.2564828 0.20998594 0.18254466 0.070830375 0.40589666 0.10045174 0.17668465 0.3104661
0.21644564 0.26823297 0.33606637 0.19189106 0.3147654 0.6214913 0.10226288 0.4307365
0.34666693 0.23530367 0.16886036 0.2753938 0.15705507 0.17897399 0.21975502 0.13040937
0.14686312 0.2152438 0.30816245 0.32561132 0.24702185 0.16122228 0.4804775 0.18420196
0.21924344 0.76346093 0.23034632 0.14236085 0.8126632 0.13782841 0.20796123 0.27202427
0.30563766 0.089326486 0.7056779 0.12756509 0.36700907 0.22678363 0.15281512 0.36486405
00000000: 7158 8f3e 7b76 843e af13 0e3f cd2b 913e
00000010: edd7 fe3d 1ac6 db3e f8cd cb3e 7913 613e
00000020: bf95 3f3e a504 873e d91d f43d 3c0b fd3d
00000030: 7a2d 273e 253f 0f3e d0e2 be3e 2847 773e
00000040: b751 833e 8e06 573e fdec 3a3e 840f 913d
00000050: b0d1 cf3e a4b9 cd3d d2ec 343e 6af5 9e3e
00000060: eda3 5d3e d555 893e e410 ac3e 177f 443e
00000070: ee28 a13e 0e1a 1f3f 336f d13d 7f89 dc3e
00000080: 547e b13e 72f3 703e bbe9 2c3e 6b00 8d3e
00000090: 0bd3 203e f544 373e 7607 613e 098a 053e
000000a0: 4963 163e df68 5c3e 78c7 9d3e 87b6 a63e
000000b0: 4cf3 7c3e 7417 253e 2601 f63e 709f 3c3e
000000c0: 5a81 603e 2d72 433f e8df 6b3e 0bc7 113e
000000d0: b20a 503f e422 0d3e caf3 543e c446 8b3e
000000e0: 8a7c 9c3e cef0 b63d 4fa7 343f 6ca0 023e
000000f0: 9de8 bb3e f839 683e 917b 1c3e 76cf ba3e

fc2.weight f4 [16, 64]
-0.01825599 0.10656246 0.013166908 -0.25729936 -0.041826148 0.018537106 -0.014743812 -0.06253958
-0.03576949 -0.073128216 -0.0021596563 0.082611844 0.04794303 0.02496092 0.06993807 0.04727678
-0.036792427 0.15849872 -0.019782068 -0.07256463 0.15552957 0.0076392395 -0.15222846 0.02508367
-0.058963254 0.093664534 0.07726551 0.06326847 0.014868673 0.12576275 -0.033038292 0.04709215
0.061635654 0.12887298 0.046319664 0.031833407 -0.011212914 -0.056926467 0.0068078954 -0.056030393
0.019779593 0.13215157 0.10352328 -0.043697722 0.14471935 -0.08982481 -0.24306498 0.016719677
-0.04534913 0.11480003 0.034253925 0.09552819 0.050391454 -0.1309461 -0.076071754 0.041024998
-0.018723184 -0.13139388 0.12466527 -0.18227519 0.04690848 0.073007435 -0.20875607 -0.033009246
0.12202538 0.06932183 -0.12439958 0.11155724 0.18047166 0.044819254 0.08124036 -0.009316126
-0.040239796 -0.016048452 0.15891601 -0.02349171 -0.02466168 0.17078178 0.030041063 0.021053895
-0.07231587 -0.111896425 -0.14102437 0.031338345 -0.09327423 0.10627088 0.07278699 -0.12849641
-0.10406926 -0.008091932 -0.07473385 0.04095631 -0.4799605 -0.033666972 0.015744615 -0.09058187
0.03014457 0.015067637 0.046985634 -0.041823838 -0.012781061 -0.113735095 0.0846127 0.11083304
-0.115713544 0.03195466 0.12920079 -0.002604197 -0.061077718 0.011871119 0.18815102 0.1384527
0.07055443 0.029332712 0.07282105 0.01958676 0.025036756 0.08213182 0.019052496 -0.11408331
-0.012725723 0.12771589 -0.057931423 0.108066455 -0.099402145 -0.21970467 0.06362966 0.031259798
0.040807493 -0.1529104 0.11815161 -0.22242443 -0.025946327 0.021942295 -0.24552454 -0.0275504
0.00594072 -0.08918196 0.052166767 -0.06282173 -0.014843251 -0.024460629 -0.060979366 0.0557907
0.06142309 -0.00030325612 -0.048322394 0.019294543 -0.04530186 -0.097095646 0.031922508 0.02392264
0.037153646 -0.16180407 -0.24748917 0.05401383 -0.2170756 -0.23567873 -0.108960606 0.0155254
-0.11705313 -0.091468304 0.0032502953 -0.017756889 -0.04295915 0.04340246 -0.016434407 -0.0003314431
-0.14679752 -0.12162388 -0.004107752 -0.16399418 -0.01830892 -0.068626575 -0.17799014 -0.0599221
-0.1353007 -0.11151779 -0.12979166 -0.05111351 -0.09213602 -0.110246696 -0.08707846 -0.18260403
-0.2500289 0.014669449 -0.16647756 -0.030583292 -0.25050035 -0.018412458 -0.101008505 -0.22172743
0.026656035 -0.19379176 0.033316404 -0.21021031 -0.003967624 -0.036238376 -0.21235336 0.046309352
-0.021371968 -0.26873204 0.059596673 -0.24394062 -0.0017233618 -0.09993611 -0.015718319 -0.025706638
0.03280962 0.003262078 -0.0026565064 0.095969856 0.11082691 -0.0011061872 0.059276387 0.07429522
0.06494121 -0.15572315 -0.051582742 -0.03218614 -0.16132686 -0.004737441 -0.076818034 0.019910809
-0.15614222 -0.10668234 -0.0030065458 0.019324543 -0.14249042 -0.0075879726 0.056441404 0.008384056
-0.13806953 -0.15719484 0.0064864717 -0.26895308 0.022591371 -0.01682009 -0.1646253 -0.052363254
-0.21894448 -0.20322977 -0.023399027 -0.068044275 -0.21395272 -0.11989694 -0.163736 -0.106717944
-0.026006648 0.0621733 -0.13954255 0.0425567 -0.086344875 0.012360062 -0.065306015 -0.1078749
00000000: 968d 95bc 6b3d da3d 04ba 573c bebc 83be
00000010: e551 2bbd 21db 973c 0890 71bc c014 80bd
00000020: 0783 12bd 3fc4 95bd 0589 0dbb 6630 a93d
00000030: e95f 443d d87a cc3c b13b 8f3d 4ca5 413d
00000040: a8b3 16bd 7d4d 223e 010e a2bc c49c 94bd
00000050: 2543 1f3e 9652 fa3b c7e1 1bbe 457c cd3c
00000060: 7483 71bd 31d3 bf3d 613d 9e3d e692 813d
00000070: bc9b 733c f3c7 003e 2953 07bd b3e3 403d
00000080: ab75 7c3d 47f7 033e b0b9 3d3d bf63 023d
00000090: 5fb6 37bc ba2b 69bd c414 df3b 2080 65bd
000000a0: d008 a23c be52 073e 0304 d43d 62fc 32bd
000000b0: 4f31 143e 12f6 b7bd 07e6 78be b4f7 883c
000000c0: 02c0 39bd 471c eb3d d84d 0c3d 49a4 c33d
000000d0: 4567 4e3d bc16 06be 82cb 9bbd d409 283d
000000e0: 5d61 99bc 1e8c 06be 8150 ff3d 59a6 3abe
000000f0: 1b23 403d ec84 953d 27c4 55be b434 07bd
00000100: 71e8 f93d 9bf8 8d3d 35c5 febd 1f78 e43d
00000110: 90cd 383e 6594 373d 5961 a63d aaa2 18bc
00000120: 7cd2 24bd 0b78 83bc e1ba 223e b071 c0bc
00000130: 4b07 cabc 6be1 2e3e ad18 f63c 3879 ac3c
00000140: 581a 94bd f429 e5bd b168 10be a35c 003d
00000150: 8f06 bfbd 8ca4 d93d 5811 953d 9094 03be
00000160: 4422 d5bd 0694 04bc 100e 99bd cec1 273d
00000170: 62bd f5be 61e6 09bd dafa 803c fd82 b9bd
00000180: bff1 f63c 40de 763c 0274 403d 794f 2bbd
00000190: a867 51bc f2ed e8bd 6c49 ad3d 6ffc e23d
000001a0: 39fb ecbd e4e2 023d 364d 043e 2dab 2abb
000001b0: a12c 7abd 157f 423c a9aa 403e 8bc6 0d3e
000001c0: d77e 903d 284b f03c 3423 953d 6a74 a03c
000001d0: e219 cd3c ba34 a83d fb13 9c3c 83a4 e9bd
000001e0: 8d7f 50bc f4c7 023e 8049 6dbd f251 dd3d
000001f0: 5a93 cbbd 43fa 60be 4450 823d 460a 003d
00000200: c225 273d 8b94 1cbe 79f9 f13d 3bc3 63be
00000210: 648d d4bc 54c0 b33c c96a 7bbe 60b1 e1bc
00000220: 5faa c23b 08a5 b6bd d2ac 553d aea8 80bd
00000230: 1b31 73bc a861 c8bc 80c5 79bd ca84 643d
00000240: c796 7b3d 59fe 9eb9 b4ed 45bd 970f 9e3c
00000250: 718e 39bd 15da c6bd 2dc1 023d 6af9 c33c
00000260: 6c2e 183d f7af 25be cd6d 7dbe 9b3d 5d3d
00000270: 1149 5ebe c455 71be bd26 dfbd 3f5e 7e3c
00000280: 8db9 efbd bc53 bbbd e802 553b e576 91bc
00000290: eff5 2fbd c7c6 313d 73a1 86bc 8ac5 adb9
000002a0: 1752 16be f115 f9bd 529a 86bb 17ee 27be
000002b0: 97fc 95bc 178c 8cbd 0c43 36be e070 75bd
000002c0: 448c 0abe 7063 e4bd 1be8 04be 665c 51bd
000002d0: cfb1 bcbd 05c9 e1bd 3156 b2bd 8dfc 3abe
000002e0: ca03 80be 2158 703c 1879 2abe d089 fabc
000002f0: 9541 80be b9d5 96bc 8cdd cebd 840c 63be
00000300: c25d da3c 5971 46be c876 083d 5f41 57be
00000310: d802 82bb b16e 14bd 2973 59be e0ae 3d3d
00000320: 4414 afbc 3f97 89be a41b 743d 92cb 79be
00000330: 6de2 e1ba 4eab ccbd b4c3 80bc ba96 d2bc
00000340: 6163 063d 96c8 553b c818 2ebb d88b c43d
00000350: 38f9 e23d 7cfd 90ba cccb 723d 1828 983d
00000360: e6ff 843d e475 1fbe 6d48 53bd 9dd5 03bd
00000370: de32 25be 893c 9bbb c652 9dbd fe1b a33c
00000380: bfe3 1fbe 457c dabd 7809 45bb 814e 9e3c
00000390: 02e9 11be 87a4 f8bb 1a2f 673d 485d 093c
000003a0: 1962 0dbe aff7 20be 788c d43b 38b4 89be
000003b0: 8a11 b93c 49ca 89bc 8993 28be da7a 56bd
000003c0: fb32 60be 771b 50be 51af bfbc cc5a 8bbd
000003d0: 6c16 5bbe 878c f5bd 69aa 27be f08e dabd
000003e0: e50b d5bc 6ea9 7e3d 3ee4 0ebe ef4f 2e3d
000003f0: 95d5 b0bd dc81 4a3c 29bf 85bd 84ed dcbd

fc2.bias f4 [16]
-0.57568717 -0.22818622 -0.31840238 -0.11814624 0.22510691 0.049191725 0.2243353 0.08024603
0.0743331 0.3667583 0.3773835 -0.10679871 0.31709972 0.18653353 -0.38238618 -0.05109546
00000000: 3c60 13bf a6a9 69be a305 a3be a8f6 f1bd
00000010: 6d82 663e 437d 493d 27b8 653e 0858 a43d
00000020: f43b 983d bec7 bb3e 6938 c13e 48b9 dabd
00000030: e55a a23e a502 3f3e 1fc8 c3be 7949 51bd

bn2.weight f4 [16]
1.1054302 1.0288728 1.152596 0.94134307 1.1457218 1.2615745 1.0259757 1.252498
1.0517687 1.3000933 0.93697315 1.0867957 0.9484313 0.9228772 1.5030589 1.1290647
00000000: bd7e 8d3f 1bb2 833f 4488 933f dcfb 703f
00000010: 03a7 923f 467b a13f 2c53 833f db51 a03f
00000020: 5ba0 863f 7569 a63f 79dd 6f3f 1f1c 8b3f
00000030: 65cc 723f ae41 6c3f 3c64 c03f 3185 903f

bn2.bias f4 [16]
0.08249999 0.13394924 0.2693443 0.20231572 0.16760144 0.22340159 0.2571688 0.19553144
0.25474924 0.18108954 0.18343791 0.24051416 0.20561813 0.12637368 0.29339337 0.29999983
00000000: c1f5 a83d fd29 093e 7fe7 893e da2b 4f3e
00000010: b69f 2b3e 63c3 643e a1ab 833e 6539 483e
00000020: 7e6e 823e 896f 393e 26d7 3b3e 5849 763e
00000030: 8f8d 523e 1a68 013e a837 963e 9499 993e

bn2.running_mean f4 [16]
0.16300146 0.22472532 0.054554146 0.11476668 0.45982635 0.43421575 0.26721138 0.34483087
0.17845793 0.5893122 0.43403697 0.12775995 0.2965501 0.35353607 0.20424268 0.14048345
00000000: dbe9 263e 651e 663e 2b74 5f3d cb0a eb3d
00000010: 5c6e eb3e 8751 de3e eecf 883e ac8d b03e
00000020: adbd 363e 2add 163f 183a de3e 81d3 023e
00000030: 6ad5 973e ae02 b53e fe24 513e e5da 0f3e

bn2.running_var f4 [16]
0.34752947 0.2740246 0.021162756 0.053811718 0.6525936 1.0246519 0.16221839 0.44020492
0.08914966 0.9053532 0.33673573 0.0788593 0.16838366 0.25136033 0.530015 0.081928976
00000000: 62ef b13e f44c 8c3e 845d ad3c ad69 5c3d
00000010: 6010 273f cb27 833f 941c 263e 8a62 e13e
00000020: 1994 b63d 3ac5 673f a068 ac3e fc80 a13d
00000030: c46c 2c3e 4db2 803e 10af 073f 61ca a73d

fc3.weight f4 [1, 16]
0.2943902 -0.16266067 -0.23206109 -0.21491921 0.41939086 0.49012703 -0.19848602 0.3808684
-0.1813648 0.39243463 -0.21529225 -0.2093505 -0.2049851 -0.19734989 0.6772397 -0.21620692
00000000: 50ba 963e 8590 26be 6ca1 6dbe c813 5cbe
00000010: 66ba d63e eef1 fa3e eb3f 4bbe 2f01 c33e
00000020: b2b7 39be 31ed c83e 9275 5cbe fa5f 56be
00000030: 9de7 51be 1716 4abe 955f 2d3f 5965 5dbe
